pytorch_test/cifar_net.pth (torch, 250951 bytes, 10 tensors)

conv1.weight f4 [6, 3, 5, 5]
0.28295657 -0.03540105 -0.04058348 -0.03321272 0.049416315 0.10861419 0.10508176 0.060861
0.0869875 0.11913033 0.00020534107 0.030653128 0.04290853 -0.02889317 -0.06953773 -0.00010898666
-0.078065746 -0.120518684 -0.16304258 -0.12305842 -0.073856466 -0.2378791 -0.15398161 -0.22752775
-0.1419846 -0.17369685 -0.20359242 -0.16871661 -0.05540661 0.022692885 0.053136464 0.086513564
0.035874967 -0.03269089 0.0029083819 -0.071016155 0.0067172353 0.046880405 -0.06696662 0.05460141
-0.078680605 0.055520907 -0.046856202 0.14055277 -0.117977 -0.06274375 -0.051785152 -0.04293639
0.044738576 -0.024935953 -0.088704705 -0.004476194 -0.07714014 -0.023347942 -0.105894625 0.10822453
0.20208132 0.23225078 0.0895111 -0.15226561 0.14747389 0.16397575 0.10368453 0.14481643
-0.0031417205 0.18216133 0.17653273 0.30962732 0.00020806663 0.106596015 0.06886939 0.18837845
0.25869435 0.09869828 -0.10172651 -0.07929696 0.15399487 -0.028417861 -0.071283005 0.0907523
0.15753622 0.123954475 -0.36026815 -0.17762229 0.13054797 0.20084354 -0.18218203 -0.29566932
0.02322995 0.2161575 0.0748062 -0.27339843 -0.19591597 0.16132121 0.2072869 0.0038121704
0.028157735 0.079008274 0.16260473 0.033275515 0.044936385 0.039784748 -0.21513122 -0.102704786
0.010928815 0.27538574 0.04216039 -0.37053296 -0.06862095 0.12324576 0.22264034 -0.20793396
-0.38304275 -0.093763486 0.2367548 -0.013225489 -0.44009945 -0.37265614 0.16297701 0.2262366
-0.08506828 -0.22435728 0.043661993 0.08421795 0.1051441 0.008184672 0.06122478 0.08022884
-0.032181147 -0.061910834 0.11199243 0.05120262 -0.20695208 -0.09258204 0.14223392 0.37574288
-0.12589838 -0.4256798 0.052312966 0.1279661 0.1522825 -0.31333098 -0.15099525 0.06253646
0.14244635 -0.12438106 -0.05157861 0.11694063 0.30505463 0.09710354 0.10363043 0.17756186
0.17247148 0.25835967 0.12747253 -0.060018837 0.222277 0.29739934 0.30040053 0.19918452
-0.046497997 0.22500321 0.28966084 0.2860399 0.2046977 -0.069235876 -0.06572743 0.064724945
0.13476 0.1284804 -0.24578649 -0.26098418 -0.20565376 -0.12050535 -0.1343633 -0.044292472
-0.018828535 -0.08244591 -0.24142921 -0.12514439 -0.113215804 -0.13737218 -0.15260234 -0.25911555
-0.23708898 -0.037223257 -0.15828964 -0.17286329 -0.27806956 -0.28408575 -0.048760716 -0.056569695
0.0028937394 -0.15908247 -0.09307133 0.0775453 0.014445489 0.13412708 0.08414743 0.010738298
0.10255895 0.19418618 0.053572148 -0.1554037 -0.1036671 0.20821884 0.1138588 -0.12568745
-0.22517088 -0.20878725 0.17638738 0.15882853 -0.047592983 -0.21498172 -0.19368511 0.20909654
0.16380979 -0.057741392 -0.041158516 -0.1456915 0.19138442 0.1697751 0.1707492 -0.021890428
-0.08335818 -0.07184762 -0.10475499 0.026164424 0.20862943 0.0896912 0.12506418 -0.23046832
-0.2230509 0.14124545 0.36450306 0.114630796 0.05235406 -0.42575797 -0.37939695 0.3335305
0.062549815 0.19778945 0.17890331 -0.34737375 -0.27208018 -0.12980264 -0.009166027 0.2208995
0.25603417 -0.06831517 -0.13105875 -0.19137305 0.15397912 0.26394615 -0.108300894 -0.010993432
00000000: afdf 903e b100 11bd dd3a 26bd 100a 08bd
00000010: c368 4a3d 1e71 de3d 1b35 d73d 6249 793d
00000020: 8126 b23d 9afa f33d d350 5739 451c fb3c
00000030: dbc0 2f3d 5fb1 ecbc cc69 8ebd c48f e4b8
00000040: efe0 9fbd 80d2 f6bd a2f4 26be 0e06 fcbd
00000050: 0f42 97bd 9496 73be 5bad 1dbe 09fd 68be
00000060: 6964 11be 96dd 31be 887a 50be 0cc4 2cbe
00000070: 0bf2 62bd 6ee6 b93c 9fa5 593d 062e b13d
00000080: a1f1 123d e2e6 05bd 8d9a 3e3b eb70 91bd
00000090: 411c dc3b ab05 403d cc25 89bd baa5 5f3d
000000a0: 4c23 a1bd e469 633d 4aec 3fbd 11ed 0f3e
000000b0: ed9d f1bd cc7f 80bd ab1c 54bd 11de 2fbd
000000c0: cc3f 373d 7c46 ccbc d0aa b5bd 09ad 92bb
000000d0: a6fb 9dbd 2f44 bfbc 48df d8bd d3a4 dd3d
000000e0: 68ee 4e3e 26d3 6d3e 9851 b73d 84eb 1bbe
000000f0: 6503 173e 42e9 273e 8e58 d43d c24a 143e
00000100: 53e5 4dbb 8088 3a3e ffc4 343e 7987 9e3e
00000110: 762c 5a39 034f da3d 650b 8d3d 48e6 403e
00000120: 9673 843e 5322 ca3d fd55 d0bd 7266 a2bd
00000130: d5b0 1d3e 93cc e8bc d3fc 91bd 58dc b93d
00000140: 2d51 213e d8db fd3d 1175 b8be 9ee2 35be
00000150: 5eae 053e eea9 4d3e ed8d 3abe f861 97be
00000160: bc4c be3c 6458 5d3e fe33 993d e1fa 8bbe
00000170: 329e 48be 6331 253e 0443 543e 9bd5 793b
00000180: 0dab e63c 17cf a13d db81 263e e84b 083d
00000190: 370f 383d 55f5 223d 5c4b 5cbe e356 d2bd
000001a0: c60e 333c 5cff 8c3e 60b0 2c3d 7fb6 bdbe
000001b0: 2489 8cbd 4668 fc3d d4fb 633e a4ec 54be
000001c0: 2e1e c4be 1207 c0bd da6f 723e b9af 58bc
000001d0: b754 e1be c9cc bebe 72e3 263e 91aa 673e
000001e0: 4738 aebd eabd 65be ebd6 323d 767a ac3d
000001f0: ca55 d73d 0119 063c d6c6 7a3d 054f a43d
00000200: 61d0 03bd 3796 7dbd 4a5c e53d d7b9 513d
00000210: 3feb 53be a79b bdbd c5a5 113e 5f61 c03e
00000220: 81eb 00be b4f2 d9be 1f46 563d 8c09 033e
00000230: f2ef 1b3e eb6c a0be 809e 1abe 1e13 803d
00000240: 75dd 113e 7fbb febd 1844 53bd 927e ef3d
00000250: 1f30 9c3e 39de c63d 313c d43d c7d2 353e
00000260: 5d9c 303e b847 843e 2988 023e 50d6 75bd
00000270: 959c 633e ba44 983e 19ce 993e 07f7 4b3e
00000280: af74 3ebd 3e67 663e 6d4e 943e d273 923e
00000290: 469c 513e 8acb 8dbd 1a9c 86bd 838e 843d
000002a0: 87fe 093e 5e90 033e 74af 7bbe b89f 85be
000002b0: e696 52be 82cb f6bd 8896 09be 066c 35bd
000002c0: 4d3e 9abc 67d9 a8bd 3839 77be da25 00be
000002d0: b0dd e7bd 4bab 0cbe ca43 1cbe cbaa 84be
000002e0: 74c7 72be 6a77 18bd ae16 22be 1303 31be
000002f0: 225f 8ebe b073 91be 51b9 47bd a0b5 67bd
00000300: e4a4 3d3b 84e6 22be 2e9c bebd 12d0 9e3d
00000310: c6ac 6c3c 9c58 093e 7d55 ac3d b0ef 2f3c
00000320: 6d0a d23d bed8 463e 786e 5b3d 2622 1fbe
00000330: 6b4f d4bd 5237 553e cd2e e93d 36b4 00be
00000340: 3293 66be 53cc 55be e59e 343e f2a3 223e
00000350: dcf0 42bd 2b24 5cbe 6455 46be 671d 563e
00000360: c1bd 273e 3d82 6cbd d595 28bd 2730 15be
00000370: 47fa 433e 86d9 2d3e e1d8 2e3e 8e53 b3bc
00000380: b2b7 aabd d824 93bd c989 d6bd c656 d63c
00000390: f4a2 553e 05b0 b73d d310 003e e3ff 6bbe
000003a0: 7567 64be a6a2 103e 25a0 ba3e 8dc3 ea3d
000003b0: 3671 563d f3fc d9be 5140 c2be 82c4 aa3e
000003c0: 1e1a 803d 5189 4a3e 6e32 373e f9da b1be
000003d0: 184e 8bbe fcea 04be 1b2d 16bc 7b33 623e
000003e0: e916 833e d3e8 8bbd 4434 06be 4cf7 43be
000003f0: b4ac 1d3e f323 873e dccc ddbd cc1d 34bc

conv1.bias f4 [6]
0.0501413 -0.27493277 -0.13903257 -0.17563638 -0.006510313 -0.32452828
00000000: f760 4d3d fdc3 8cbe 8e5e 0ebe 06da 33be
00000010: 7754 d5bb 9228 a6be

conv2.weight f4 [16, 6, 5, 5]
0.059611984 0.059172362 0.017153258 0.15478122 0.09956012 0.10615581 0.0061916667 0.17258932
0.066530086 -0.088973366 0.15789677 0.0199015 0.03445904 -0.08143173 -0.06980294 0.13692953
0.038888678 0.020838521 -0.076048836 -0.16761804 0.21642555 0.12565881 0.11396093 -0.008428627
-0.10142862 -0.28013733 0.2587529 0.4196813 0.033153936 -0.28459087 0.15328605 0.29385346
-0.25390333 -0.74862826 -0.30575863 -0.33379143 -0.55423284 -1.453416 -1.1267133 -0.23171368
-1.1450877 -0.4670014 -0.9682717 -0.36962265 0.24056497 -0.6685264 -0.30170217 0.0910885
0.2775581 0.36558312 0.09211693 0.098168015 0.0930984 -0.1287441 -0.15867344 0.062171847
-0.12312389 -0.115786925 -0.15398188 -0.10711975 0.012416028 -0.31151986 -0.25549492 -0.15713432
0.23917203 0.24390067 -0.12263303 -0.30633128 -0.0018187563 0.1946816 0.11240116 -0.08345069
-0.08395899 0.23638923 0.2460919 0.11999117 0.22487608 0.21995571 -0.021354584 -0.0109262
-0.11371108 0.14233503 -0.06418846 -0.15259032 -0.25609395 -0.5628825 -0.43884778 -0.6217557
-0.7957665 -0.57245374 -0.31625876 -0.4559705 -0.6544192 -0.4731379 -0.48232415 -0.38701785
-0.2263251 -0.2421774 -0.10146688 -0.08035726 0.36454815 0.23594895 -0.06707308 0.02547481
0.0875199 0.08282307 -0.030677767 -0.33761683 -0.043412417 -0.031898975 0.061797332 -0.021429686
-0.21595095 -0.013806646 0.044210885 0.04681396 -0.011940181 -0.018679332 0.10732944 -0.10215201
0.0076921233 0.15955727 0.13758588 0.11889495 0.1884044 -0.20386814 0.16137318 0.17525853
0.074902214 0.0104995435 -0.265567 -0.43896186 -0.45686182 -0.3010495 -0.3485019 -0.78285474
-0.9343756 -1.0593157 -0.36670107 -0.06933119 -0.5146698 -0.5825325 -0.5125652 -0.2328965
-0.0034097105 -0.09472708 0.05697933 -0.17716736 -0.11215936 0.11048967 0.09070101 0.031922143
-0.05059164 -0.17679162 -0.063025914 -0.023098651 -0.12159079 -0.07486393 0.048496086 0.085942216
-0.13443916 0.077816755 0.14282508 0.12636921 -0.022436135 -0.17441888 0.061522588 0.20894966
0.09297679 0.09136957 -0.15437798 -0.042114917 0.008143796 0.11578468 0.36285877 -0.31037372
-0.10740746 0.1512091 0.10662797 -0.2607626 -0.1914455 0.095595725 0.04742232 -0.34140664
-0.051642258 0.18911906 -0.07877303 -0.5400038 -0.42542437 -0.27798012 -0.19870159 -0.4787239
-0.60891116 -0.45279306 -0.42666253 -0.12796009 -0.122036465 0.0005545602 -0.41266814 -0.9229306
-0.070967555 -0.025705973 0.08172085 -0.11445323 -0.35105893 0.12377898 0.25653365 0.19778372
0.021892238 -0.35616496 0.0008002059 -0.0240161 0.22555725 0.3238132 -0.049476065 0.06084282
-0.23994927 -0.032024708 0.22166565 0.005178299 0.33259413 0.14072648 -0.11922766 -0.20965995
-0.14680773 0.29637393 0.05921317 0.19990338 -0.024104878 -0.066909745 0.31433156 0.17380643
-0.11089078 0.10187576 0.005207904 0.14037438 0.074233554 0.16796087 0.37283772 0.15590873
0.39139402 0.19703148 -0.006863884 0.039071158 0.21040562 0.45118353 0.54276484 0.42540488
0.1728928 0.07850711 0.07996537 0.17394158 0.014941293 0.062555835 -0.044879034 -0.061776407
00000000: b22b 743d b85e 723d fd84 8c3c f87e 1e3e
00000010: 2de6 cb3d 3868 d93d 77e3 ca3b 41bb 303e
00000020: ed40 883d ab37 b6bd b1af 213e 7808 a33c
00000030: ec24 0d3d aec5 a6bd d8f4 8ebd 4137 0c3e
00000040: bc49 1f3d 8cb5 aa3c 7ebf 9bbd 10a4 2bbe
00000050: a99e 5d3e b4ac 003e 5964 e93d 3918 0abc
00000060: cfb9 cfbd 296e 8fbe 437b 843e 78e0 d63e
00000070: 6ccc 073d e5b5 91be 05f7 1c3e f673 963e
00000080: 9eff 81be 1aa6 3fbf 658c 9cbe b6e6 aabe
00000090: 34e2 0dbf 8909 babf 2438 90bf 5a46 6dbe
000000a0: 3c92 92bf cf1a efbe a7e0 77bf 2e3f bdbe
000000b0: aa56 763e 8c24 2bbf b578 9abe 9c8c ba3d
000000c0: 181c 8e3e b62d bb3e cda7 bc3d 500c c93d
000000d0: 60aa be3d 7ed5 03be 4a7b 22be e8a7 7e3d
000000e0: 6128 fcbd b221 edbd 6dad 1dbe 9961 dbbd
000000f0: 996c 4b3c 887f 9fbe 3bd0 82be d2e7 20be
00000100: 83e9 743e 19c1 793e 0727 fbbd 74d7 9cbe
00000110: 5663 eeba 9d5a 473e 9432 e63d 32e8 aabd
00000120: b1f2 abbd 0510 723e 84ff 7b3e eebd f53d
00000130: ea45 663e 123c 613e cfef aebc ce03 33bc
00000140: 5be1 e8bd 46c0 113e 3d75 83bd a340 1cbe
00000150: bf1e 83be 1119 10bf a8b0 e0be 622b 1fbf
00000160: 5ab7 4bbf 548c 12bf abec a1be f774 e9be
00000170: 0488 27bf 213f f2be 31f3 f6be 3427 c6be
00000180: c4c1 67be 5afd 77be decd cfbd 5992 a4bd
00000190: 0ea6 ba3e 9a9c 713e 9c5d 89bd 8cb0 d03c
000001a0: a23d b33d 249f a93d f14f fbbc 1ddc acbe
000001b0: 38d1 31bd 80a8 02bd 331f 7d3d 4f8d afbc
000001c0: 3f22 5dbe 4535 62bc 7916 353d ffbf 3f3d
000001d0: c0a0 43bc 6605 99bc 8acf db3d 1335 d1bd
000001e0: 350e fc3b fb62 233e 50e3 0c3e 327f f33d
000001f0: 15ed 403e cfc2 50be 033f 253e f976 333e
00000200: 5566 993d 4706 2c3c 66f8 87be 9cbf e0be
00000210: cbe9 e9be 2923 9abe d76e b2be 2b69 48bf
00000220: 3d33 6fbf a897 87bf 3ec0 bbbe 83fd 8dbd
00000230: 66c1 03bf da20 15bf 7937 03bf 6c7c 6ebe
00000240: 7375 5fbb 4500 c2bd 2863 693d 5c6b 35be
00000250: ceb3 e5bd 6848 e23d 73c1 b93d cbc0 023d
00000260: 2e39 4fbd dd08 35be bb13 81bd 6239 bdbc
00000270: 9804 f9bd 4352 99bd d5a3 463d 7902 b03d
00000280: 6baa 09be 645e 9f3d bd40 123e ee66 013e
00000290: fccb b7bc dd9a 32be 1cff 7b3d e6f6 553e
000002a0: 9e6a be3d f81f bb3d 4315 1ebe b180 2cbd
000002b0: 8e6d 053c 8520 ed3d a0c8 b93e 4ee9 9ebe
000002c0: 71f8 dbbd 8fd6 1a3e c45f da3d ad82 85be
000002d0: 4a0a 44be b1c7 c33d e83d 423d dacc aebe
000002e0: d586 53bd 6da8 413e c153 a1bd b03d 0abf
000002f0: 39d1 d9be 6953 8ebe 6e78 4bbe 4d1b f5be
00000300: 9ae1 1bbf 7ed4 e7be 8373 dabe f807 03be
00000310: 41ee f9bd e85f 113a 3d49 d3be 2e45 6cbf
00000320: 7057 91bd 5595 d2bc 435d a73d 7466 eabd
00000330: ffbd b3be d57f fd3d 6158 833e d187 4a3e
00000340: 5a57 b33c 415b b6be e9c4 513a 6abd c4bc
00000350: 7bf8 663e d8ca a53e 6aa7 4abd 5236 793d
00000360: 43b5 75be 572c 03bd 52fc 623e b8ae a93b
00000370: c749 aa3e 9a1a 103e a22d f4bd 19b1 56be
00000380: c454 16be 53be 973e 8289 723d 79b3 4c3e
00000390: 9877 c5bc fa07 89bd 11f0 a03e 50fa 313e
000003a0: b51a e3bd 3da4 d03d 11a7 aa3b 4dbe 0f3e
000003b0: c307 983d effd 2b3e 96e4 be3e 8aa6 1f3e
000003c0: cc64 c83e 9fc2 493e 6fea e0bb 1409 203d
000003d0: 9274 573e 8701 e73e a3f2 0a3f abce d93e
000003e0: cf0a 313e 56c8 a03d e2c4 a33d be1d 323e
000003f0: 53cc 743c 461d 803d 14d3 37bd 4209 7dbd

conv2.bias f4 [16]
1.0701168 0.19505964 -0.51044387 0.71307904 -0.13855137 -0.11373895 0.19923145 0.36354417
0.588983 -0.161561 -0.053541172 -0.19164304 0.48348325 -0.34868082 0.8631297 -0.13940008
00000000: 96f9 883f b7bd 473e 73ac 02bf 598c 363f
00000010: 69e0 0dbe f7ef e8bd 5403 4c3e 7622 ba3e
00000020: 97c7 163f 3f70 25be fd4d 5bbd 133e 44be
00000030: 1e8b f73e 4b86 b2be 11f6 5c3f e5be 0ebe

fc1.weight f4 [120, 400]
0.014908028 -0.007462865 -0.034675784 -0.02416538 -0.00055012107 0.011224082 0.0058976095 0.041640047
-0.048098918 -0.01723501 0.0359463 0.031246047 0.03421334 0.042445898 0.00024951203 -0.013173967
-0.03711745 -0.01337493 -0.025007393 -0.015014713 -0.009759684 -0.038300287 0.027868932 -0.01118708
0.02536599 -0.002617105 -0.0227416 0.01379409 -0.04524455 -0.016012134 -0.020855376 -0.020183112
0.02053288 -0.017151825 -0.038737174 -0.014848328 -0.033881735 0.005193831 -0.0006162801 -0.042182554
-0.012668389 0.0064627104 0.008115837 0.0076322076 0.00946825 0.014942322 -0.027561508 0.032328013
-0.027250165 0.030186575 -0.0044742767 -0.030940551 -0.027631624 -0.034740686 0.015623803 0.019748615
-0.031005584 -0.017409835 -0.03640161 -0.034066807 -0.06207276 -0.014370221 0.0079192575 0.005576192
-0.055434383 -0.048575457 -0.04496165 0.010926444 -0.051248867 -0.059231095 -0.06869854 -0.040204786
-0.041756317 0.008175283 -0.044317227 -0.066357575 -0.02167263 -0.02580008 0.043602403 -0.00762198
-0.024228789 -0.022470951 -0.02085787 0.0303128 -0.046821933 -0.009727225 -0.050471973 -0.045979615
0.015903257 0.012598794 -0.08119908 0.030924559 0.027359407 -0.001426416 -0.05718646 -0.048444368
-0.08282236 -0.0027133783 0.011798288 -0.0067252624 0.009017414 -0.081486754 0.0030751324 -0.021798152
0.005322997 -0.06734991 -0.0016132646 -0.037499916 -0.015123619 -0.03267 -0.023887856 -0.028556919
-0.029035667 -0.026277058 -0.07287688 -0.0032346619 -0.04740772 0.00976268 -0.07979674 -0.06306895
-0.0059583187 0.00029938584 -0.038655896 -0.045330852 -0.04747389 -0.06799646 -0.009601805 -0.038591858
-0.007520841 0.018795988 0.017266283 0.022869198 -0.032035682 -0.044182047 -0.05226315 -0.051031806
0.030073367 -0.013985049 0.027514033 -0.04468089 -0.055116825 -0.04986517 -0.053821452 -0.00031327148
-0.04732838 0.009667249 -0.055264216 -0.0010926799 -0.013896147 -0.0330912 0.016398277 -0.06253505
-0.06561941 -0.047261965 -0.016301915 -0.03823753 0.013724654 -0.031390462 -0.08065683 -0.014712366
-0.05900386 -0.0202233 -0.009999183 -0.07381915 -0.072846726 0.01952096 -0.08045632 -0.0062195533
-0.013018539 -0.018385284 -0.03150061 -0.06754596 -0.033979032 -0.076095656 -0.08214522 -0.06233646
0.015229303 -0.054967623 -0.06194075 0.009455612 -0.026094021 -0.0313054 -0.0041302256 -0.0058600274
0.012907333 -0.062378846 -0.07094553 -0.055362694 -0.018202353 0.014291361 -0.06860476 -0.046628825
-0.053745635 -0.022553876 -0.031254813 -0.019072339 0.016571209 -0.024692472 -0.033214364 -0.045785822
-0.03301565 -0.022347843 -0.0100942375 -0.015073443 -0.014414412 -0.0064692358 -0.03496645 -0.04016634
-0.0048865913 -0.026351942 0.010937991 -0.0013193194 -0.026381988 -0.07510569 -0.036688928 -0.03141809
-0.07953572 0.012971617 -0.03500773 -0.013513168 0.013127128 -0.022489738 -0.0583855 0.001880519
-0.004117572 0.02055893 -0.046182215 -0.023278832 -0.012643989 -0.02267755 0.011209684 -0.037089672
0.011205143 -0.00015600324 -0.010966867 -0.04050362 0.010516482 -0.01632278 0.03165404 0.035353582
0.029520405 -0.014559939 -0.020520346 0.014608353 -0.023943199 -0.02301357 -0.007667376 0.0180195
-0.05419478 -0.03188386 -0.07238161 0.010792596 -0.018132199 0.022807423 0.02359706 -0.06867401
00000000: cd40 743c 0d8b f4bb 3208 0ebd 7af6 c5bc
00000010: 0036 10ba 36e5 373c bc40 c13b c18e 2a3d
00000020: 5f03 45bd 7030 8dbc 6d3c 133d b6f7 ff3c
00000030: 4a23 0c3d c0db 2d3d f0d0 8239 9fd7 57bc
00000040: 7808 18bd 8622 5bbc 4edc ccbc 4500 76bc
00000050: 15e7 1fbc c3e0 1cbd 634d e43c 044a 37bc
00000060: 56cc cf3c bc83 2bbb 984c babc 9b00 623c
00000070: 5952 39bd e12b 83bc e5d8 aabc 0e57 a5bc
00000080: 9234 a83c fc81 8cbc dfaa 1ebd 6746 73bc
00000090: 93c7 0abd 0331 aa3b db8d 21ba 9dc7 2cbd
000000a0: 138f 4fbc 25c5 d33b 4af8 043c 9917 fa3b
000000b0: b820 1b3c a4d0 743c acc8 e1bc 616a 043d
000000c0: bd3b dfbc d649 f73c f49c 92bb 0a77 fdbc
000000d0: b75b e2bc 404c 0ebd fbfa 7f3c d9c7 a13c
000000e0: 6cff fdbc 129f 8ebc db19 15bd a389 0bbd
000000f0: 0240 7ebd 1371 6bbc c6bf 013c 7db8 b63b
00000100: 2a0f 63bd 0ff7 46bd b529 38bd d404 333c
00000110: 55ea 51bd 4e9c 72bd d2b1 8cbd c6ad 24bd
00000120: ac08 2bbd 9ff1 053c fb85 35bd 7be6 87bd
00000130: cd8a b1bc b05a d3bc 6f98 323d cdc1 f9bb
00000140: 747b c6bc 0015 b8bc 20de aabc 8d52 f83c
00000150: 5bc8 3fbd f05e 1fbc b3bb 4ebd 1f55 3cbd
00000160: 8c47 823c 2c6b 4e3c b44b a6bd 8055 fd3c
00000170: d620 e03c 94f6 baba 593c 6abd 9a6d 46bd
00000180: c59e a9bd efd2 31bb 9b4d 413c 975f dcbb
00000190: c7bd 133c 87e2 a6bd 2988 493b 0a92 b2bc
000001a0: 896c ae3b c0ee 89bd 2d74 d3ba 8399 19bd
000001b0: 0ec9 77bc fad0 05bd 77b0 c3bc 33f0 e9bc
000001c0: 35dc edbc fc42 d7bc 7940 95bd 9ffc 53bb
000001d0: 992e 42bd a6f3 1f3c 796c a3bd 4b2a 81bd
000001e0: 003e c3bb e3f6 9c39 a555 1ebd d8ac 39bd
000001f0: fb73 42bd ba41 8bbd e450 1dbc 7f12 1ebd
00000200: 6371 f6bb 0bfa 993c 0572 8d3c 2f58 bb3c
00000210: d937 03bd 3cf8 34bd e311 56bd ba06 51bd
00000220: 6c5c f63c 8c21 65bc 1c65 e13c 4f03 37bd
00000230: 2ec2 61bd 6c3f 4cbd e273 5cbd 963e a4b9
00000240: 67db 41bd 6263 1e3c bb5c 62bd 4138 8fba
00000250: aaac 63bc a38a 07bd ae55 863c 6012 80bd
00000260: 7863 86bd c395 41bd 988b 85bc f59e 1cbd
00000270: 5fdd 603c 4993 00bd 682f a5bd 230c 71bc
00000280: 08ae 71bd 56ab a5bc 9dd3 23bc 7f2e 97bd
00000290: aa30 95bd 6cea 9f3c 48c6 a4bd 65cd cbbb
000002a0: b64b 55bc bc9c 96bc c906 01bd 8955 8abd
000002b0: 992d 0bbd 0ad8 9bbd c13b a8bd 8454 7fbd
000002c0: 5484 793c bb25 61bd 95b5 7dbd b6eb 1a3c
000002d0: 21c3 d5bc 173a 00bd d856 87bb 7905 c0bb
000002e0: 4779 533c f680 7fbd e44b 91bd fec3 62bd
000002f0: 1a1d 95bc 5026 6a3c a780 8cbd defd 3ebd
00000300: 6224 5cbd e8c2 b8bc 0c05 00bd 983d 9cbc
00000310: 58c0 873c de47 cabc c90b 08bd ea89 3bbd
00000320: 6b3b 07bd d312 b7bc 4d62 25bc 9af6 76bc
00000330: 6d2a 6cbc e2fb d3bb fb38 0fbd 7685 24bd
00000340: b31f a0bb 07e0 d7bc 4235 333c 03ed acba
00000350: 0a1f d8bc 03d1 99bd 2147 16bd 41b0 00bd
00000360: a0e3 a2bd e886 543c 4464 0fbd 5666 5dbc
00000370: 2a13 573c 663c b8bc a225 6fbd bf7b f63a
00000380: b3ec 86bb 336b a83c 9029 3dbd 40b3 bebc
00000390: bc28 4fbc 45c6 b9bc d3a8 373c 57eb 17bd
000003a0: c795 373c cd94 23b9 60ae 33bc 20e7 25bd
000003b0: 534d 2c3c 5ab7 85bc aba7 013d ebce 103d
000003c0: c7d4 f13c cf8c 6ebc 491a a8bc e057 6f3c
000003d0: 8724 c4bc f486 bcbc 9d3e fbbb a19d 933c
000003e0: 58fb 5dbd a698 02bd cf3c 94bd 6ed3 303c
000003f0: fa89 94bc a2d6 ba3c 9f4e c13c f6a4 8cbd

fc1.bias f4 [120]
-0.04065091 1.128688 0.38088268 0.47641936 -0.07897364 -0.09157687 -0.16345486 -0.13259092
0.07114917 0.10971559 0.072486095 -0.33184275 -0.7106543 -0.06833573 -0.06221785 -0.061890796
0.30947837 0.03172784 0.18185093 -0.35970196 0.009667119 0.22681247 0.2608163 -0.054226354
-0.02850675 -0.040502634 -0.050477996 -0.0659993 -0.060113978 -0.45698196 -0.03931895 0.45186564
0.3818231 -0.06731133 -0.030312879 -0.054339066 -0.16547315 0.022560066 -0.17251588 0.013737728
-0.06624011 -0.012433308 -0.04643799 -0.041337527 0.60543215 0.08807029 -0.035375264 -0.019896332
-0.62950706 -0.49229452 -0.0676666 -0.08117314 0.35681865 0.6612166 -0.04842133 0.35151124
-0.056265987 -0.089095734 -0.029412614 -0.06218687 -0.034925204 -0.051530983 0.009350727 0.3526873
0.6308041 0.31293634 0.2325651 -0.6437604 -0.18815312 0.018810084 0.028430678 -0.019118786
-0.04737136 0.54583853 0.82444984 0.016095148 -0.0605543 0.1860661 0.16338845 -0.06558357
-0.049920797 0.013884889 -0.09699693 -0.1434818 0.78160733 -0.046949476 0.555196 0.8266187
-0.1638144 -0.48693097 -0.19879457 0.12350416 -0.16238457 -0.036581885 -0.18324502 -0.020131793
-0.22390513 0.84427994 -0.09470714 0.017600292 -0.07097726 0.5598158 -0.32621503 0.28659642
0.7796065 0.1301376 -0.039863043 -0.013355877 -0.0048721256 -0.1096696 0.20229898 -0.012441308
-0.02173454 0.013465406 -0.00576893 -0.024859753 0.783682 -0.089693695 -0.38070858 -0.06485929
00000000: 9281 26bd d978 903f 0e03 c33e 3ded f33e
00000010: efbc a1bd a78c bbbd b660 27be eac5 07be
00000020: a8b6 913d 91b2 e03d 9773 943d 4be7 a9be
00000030: 71ed 35bf 9af3 8bbd 25d8 7ebd 3481 7dbd
00000040: f373 9e3e 0df5 013d 2137 3a3e db2a b8be
00000050: d662 1e3c 8741 683e b789 853e 741c 5ebd
00000060: fd86 e9bc 17e6 25bd 04c2 4ebd a42a 87bd
00000070: 133a 76bd 8af9 e9be e80c 21bd ef5a e73e
00000080: 517e c33e 86da 89bd b752 f8bc a492 5ebd
00000090: cb71 29be e3cf b83c 01a8 30be 3514 613c
000000a0: e5a8 87bd 13b5 4bbc c335 3ebd 8a51 29bd
000000b0: 9afd 1a3f 325e b43d a7e5 10bd a2fd a2bc
000000c0: 6027 21bf 070e fcbe c994 8abd 1a3e a6bd
000000d0: efb0 b63e 7e45 293f 7255 46bd 48f9 b33e
000000e0: 2a77 66bd d377 b6bd b9f2 f0bc a9b7 7ebd
000000f0: bb0d 0fbd 2712 53bd cb33 193c 6e93 b43e
00000100: 617c 213f 3139 a03e 8c25 6e3e 7bcd 24bf
00000110: 36ab 40be 9b17 9a3c 74e7 e83c 009f 9cbc
00000120: 7908 42bd 13bc 0b3f 250f 533f f9d9 833c
00000130: c907 78bd 1d88 3e3e 4d4f 273e ae50 86bd
00000140: c079 4cbd 727d 633c 54a6 c6bd e5ec 12be
00000150: 6b17 483f 184e 40bd 5321 0e3f 489d 533f
00000160: f6be 27be 044f f9be ce90 4bbe c0ef fc3d
00000170: 2448 26be e3d6 15bd 95a4 3bbe 6eeb a4bc
00000180: 6347 65be bb22 583f d1f5 c1bd 7d2e 903c
00000190: 875c 91bd 1750 0f3f a805 a7be c4bc 923e
000001a0: 4b94 473f ca42 053e 6e47 23bd 9cd2 5abc
000001b0: 5aa6 9fbb 759a e0bd 7727 4f3e a1d6 4bbc
000001c0: a20c b2bc 029e 5c3c 4b09 bdbb aea6 cbbc
000001d0: 629f 483f 54b1 b7bd 3cec c2be f3d4 84bd

fc2.weight f4 [84, 120]
-0.009333418 0.07118396 0.044205107 0.15814115 -0.28630877 0.015839808 -0.02753986 0.03220881
-0.1074332 -0.0014803929 -0.037118413 -0.063420236 0.06741344 -0.028737875 -0.014623822 0.085125685
-0.031299416 -0.058819078 -0.32405746 -0.14265376 0.01927867 -0.22005592 0.26994038 0.075124756
-0.07763884 -0.07382082 0.03185956 0.05641607 0.005267073 -0.18952341 -0.33538178 -0.41027695
0.04788224 0.070137955 0.056761503 0.05798725 -0.016944509 0.079740964 0.19736798 0.026989693
-0.40112913 0.0076761027 -0.09390827 -0.049220614 -0.2053064 0.13594031 0.086193316 -0.03669364
0.0027545313 0.10714137 -0.013396498 -0.061671592 0.15329255 -0.067911655 -0.07258562 0.35372192
0.023364874 -0.122517265 0.021147154 0.017884575 -0.21097963 -0.023035761 -0.026344875 -0.028519606
-0.04543337 0.069092475 -0.109199196 -0.1710409 -0.37202215 0.050090358 0.0666577 0.044576745
0.024278538 -0.0919496 -0.11313979 0.07591693 -0.048916038 -0.08886753 -0.2821825 -0.07639237
-0.08444057 -0.32136816 0.26586455 0.057848882 -0.080325656 -0.015252516 -0.037691303 -0.027233532
-0.29361376 -0.10714384 0.27424908 -0.3601248 0.022156795 0.084605575 0.1335343 0.031147176
-0.36152393 -0.10213583 -0.0016543226 -0.0839296 0.053936258 0.01958317 -0.029027464 -0.21280944
-0.34352928 -0.07831444 -0.07820356 -0.26506525 0.059553415 -0.047582667 0.12505923 0.054969072
0.05927066 0.0422355 0.0063497387 -0.02615671 0.1129269 -0.21194847 -0.16864195 0.026998017
0.07805871 -0.11729415 0.24593605 -0.11743777 0.17123552 0.090590976 -0.062254835 0.071906574
-0.094150394 -0.026856607 -0.05111513 -0.048070084 -0.36660275 -0.0878991 -0.044177342 0.08721187
-0.13832106 0.008034004 -0.018936118 -0.122135065 0.052008256 0.16968067 -0.19424383 0.0026962599
-0.0062880525 0.027026456 -0.03989288 0.081438825 0.046946164 -0.13834281 0.20408112 -0.27075145
-0.3726067 -0.08137194 0.07134615 0.08418251 -0.029383237 -0.105682574 -0.31915775 0.023795815
-0.13938226 -0.08699107 0.008687639 -0.031323504 0.06676066 0.04908606 0.010647093 0.026454363
-0.40549302 0.023967896 0.046395835 0.038642872 -0.024522629 0.28067446 -0.06731242 0.263865
0.11414864 0.1970518 0.009595555 0.0475775 -0.08336205 -0.060911022 0.062349815 -0.34741202
0.21154463 -0.05066354 -0.2542037 0.19957957 -0.032852132 -0.06463222 0.11733172 0.09663534
0.025821907 0.13167654 -0.09435886 -0.05397926 0.015703117 -0.29286107 -0.22961223 0.029289698
0.018777452 0.15822473 0.22203535 0.07810146 -0.33898523 0.024198381 -0.22670305 0.13629937
0.057733864 -0.035922498 0.12034708 -0.16338418 0.08543997 -0.07501957 0.28967616 0.046920605
0.41344473 0.22229847 0.035161026 -0.066985704 0.059573613 0.11169661 0.013700193 0.35203257
0.03331842 -0.17789894 6.492434e-06 -0.004016876 0.023523387 0.05442154 -0.11592693 0.037936892
-0.054156166 -0.07170212 -0.05618856 0.06159169 0.1854116 -0.25799176 0.09098912 -0.050697707
0.014227215 -0.25454828 0.4089487 -0.2880688 0.13090327 0.008138794 -0.16163056 0.16925159
0.1123244 -0.088234946 0.086954944 0.34545782 0.0064216056 -0.014573165 -0.083220504 0.0039304527
00000000: 31eb 18bc e5c8 913d 6a10 353d c1ef 213e
00000010: 1097 92be 7cc2 813c 469b e1bc 63ed 033d
00000020: f005 dcbd be09 c2ba 7a09 18bd 78e2 81bd
00000030: 0f10 8a3d b16b ebbc c198 6fbc 6056 ae3d
00000040: d133 00bd 46ec 70bd dcea a5be d413 12be
00000050: 4dee 9d3c 5756 61be a035 8a3e 02db 993d
00000060: 1d01 9fbd 5f2f 97bd 2c7f 023d 8914 673d
00000070: 6997 ac3b 6d12 42be 29b7 abbe d20f d2be
00000080: 2b20 443d 7da4 8f3d c07e 683d 0a84 6d3d
00000090: 36cf 8abc 3b4f a33d d51a 4a3e 7d19 dd3c
000000a0: cc60 cdbe d187 fb3b fb52 c0bd 8e9b 49bd
000000b0: d73b 52be f033 0b3e 1f86 b03d 124c 16bd
000000c0: 5e85 343b ef6c db3d fc7c 5bbc 5a9b 7cbd
000000d0: b9f8 1c3e 4415 8bbd c5a7 94bd 0a1b b53e
000000e0: b167 bf3c 55ea fabd cc3c ad3c ac82 923c
000000f0: 0b0b 58be 7eb5 bcbc 35d1 d7bc f3a1 e9bc
00000100: 5718 3abd 5b80 8d3d d4a3 dfbd 5825 2fbe
00000110: b079 bebe 8c2b 4d3d d583 883d 1b96 363d
00000120: c9e3 c63c 1250 bcbd d6b5 e7bd 567a 9b3d
00000130: 2f5c 48bd 2e00 b6bd 3a7a 90be 9a73 9cbd
00000140: 2def acbd 5e8a a4be 661f 883e f3f2 6c3d
00000150: c781 a4bd b0e5 79bc 3262 1abd db18 dfbc
00000160: 8b54 96be 3b6e dbbd 606a 8c3e 4762 b8be
00000170: 2b82 b53c b045 ad3d 37bd 083e 5d28 ff3c
00000180: aa19 b9be 972c d1bd dbd5 d8ba 48e3 abbd
00000190: 44ec 5c3d e26c a03c 01cb edbc b8ea 59be
000001a0: 12e3 afbe 5263 a0bd 3029 a0bd a2b6 87be
000001b0: 48ee 733d 0be6 42bd 870f 003e 4027 613d
000001c0: cbc5 723d 22ff 2c3d 7811 d03b 9946 d6bc
000001d0: 3846 e73d 0509 59be 7ab0 2cbe f22a dd3c
000001e0: 3fdd 9f3d ea37 f0bd a9d6 7b3e 3783 f0bd
000001f0: 5d58 2f3e c387 b93d edfe 7ebd c143 933d
00000200: ecd1 c0bd 6302 dcbc 195e 51bd 23e5 44bd
00000210: 5bb3 bbbe 7104 b4bd 4df3 34bd 239c b23d
00000220: 09a4 0dbe 0ea1 033c eb1f 9bbc f321 fabd
00000230: 9c06 553d c5c0 2d3e dbe7 46be bcb3 303b
00000240: 020c cebb 9666 dd3c b766 23bd 66c9 a63d
00000250: 9f4a 403d bda9 0dbe a4fa 503e ef9f 8abe
00000260: 4ec6 bebe 55a6 a6bd ee1d 923d e167 ac3d
00000270: 1db5 f0bc 1b70 d8bd a568 a3be 71ef c23c
00000280: 39ba 0ebe 6028 b2bd 9956 0e3c 134d 00bd
00000290: d0b9 883d 770e 493d 2571 2e3c d2b6 d83c
000002a0: c89c cfbe 5258 c43c 8f09 3e3d fd47 1e3d
000002b0: aee3 c8bc 90b4 8f3e 18db 89bd 5019 873e
000002c0: c3c6 e93d f2c7 493e ad36 1d3c a0e0 423d
000002d0: b9b9 aabd d67d 79bd 8562 7f3d fddf b1be
000002e0: 289f 583e 9284 4fbd fd26 82be 965e 4c3e
000002f0: f58f 06bd e65d 84bd 9d4b f03d c0e8 c53d
00000300: 7788 d33c 37d6 063e 383f c1bd 5b19 5dbd
00000310: d3a3 803c e3f1 95be 781f 6bbe f3f0 ef3c
00000320: 2cd3 993c aa05 223e 3c5d 633e a9f3 9f3d
00000330: 798f adbe af3b c63c d824 68be 1092 0b3e
00000340: 587a 6c3d 7823 13bd 8878 f63d 2f4e 27be
00000350: 27fb ae3d dca3 99bd 6f50 943e d22f 403d
00000360: 07af d33e 36a2 633e 0205 103d cd2f 89bd
00000370: 7603 743d 31c1 e43d c676 603c 9d3d b43e
00000380: e578 083d 242b 36be 95d9 d936 00a0 83bb
00000390: 1eb4 c03c 1fe9 5e3d 196b edbd b763 1b3d
000003a0: dbd2 5dbd 90d8 92bd fa25 66bd 9147 7c3d
000003b0: 8adc 3d3e 7f17 84be 8158 ba3d 66a8 4fbd
000003c0: 4419 693c 2754 82be b961 d13e c17d 93be
000003d0: 820b 063e 9458 053c 7b82 25be 4a50 2d3e
000003e0: 560a e63d 86b4 b4bd 6f15 b23d d9df b03e
000003f0: 556c d23b 49c4 6ebc 836f aabd 07cb 803b

fc2.bias f4 [84]
-0.053887375 0.46240667 0.30460328 -0.0012932684 0.40035057 -0.48490825 0.672878 0.28069207
0.54292023 0.531218 -0.25086161 -0.34293544 -0.31978598 0.79905075 0.11670322 0.18036105
-0.1903465 -0.33818322 -0.13091485 -0.20755665 0.679818 -0.29144013 -0.21972594 -0.24751665
-0.3055796 0.5080247 0.38933733 -0.1436767 -0.105644695 0.12771873 0.0035666889 -0.11203699
0.63003355 -0.03772137 0.6261985 0.25541133 0.17494453 -0.22995107 0.32486767 0.03057407
-0.4019925 0.2193164 0.11347563 -0.0989137 0.3065193 0.6963773 -0.06067717 0.27419308
0.54071593 -0.21470356 0.31931362 0.87389505 0.5238271 -0.12386416 0.0999623 -0.1897387
-0.15074787 0.04245987 -0.16485667 1.071761 0.0398734 0.53554463 0.3354441 -0.119489916
0.01329863 -0.3541653 1.1145637 0.3539978 -0.4545824 0.043131858 0.49680695 -0.14817986
0.36381274 -0.18736753 0.050079454 0.020714043 -0.03475136 -0.12138836 0.3763853 0.23060471
0.7578437 0.56596375 0.3739598 0.12484782
00000000: 02b9 5cbd 91c0 ec3e f6f4 9b3e e382 a9ba
00000010: c0fa cc3e e545 f8be bc41 2c3f dfb6 8f3e
00000020: d2fc 0a3f e7fd 073f ef70 80be 3c95 afbe
00000030: fdba a3be 978e 4c3f 1902 ef3d 91b0 383e
00000040: 31ea 42be 5a26 adbe 8b0e 06be bb89 54be
00000050: 8d08 2e3f a437 95be d6ff 60be 0175 7dbe
00000060: ee74 9cbe e80d 023f 3957 c73e fc1f 13be
00000070: 3f5c d8bd b3c8 023e 1cbf 693b a673 e5bd
00000080: e149 213f b981 1abd 8b4e 203f 46c5 823e
00000090: a924 333e 4b78 6bbe 0e55 a63e 7976 fa3c
000000a0: f6d1 cdbe 7a94 603e e965 e83d 4493 cabd
000000b0: 19f0 9c3e c845 323f a088 78bd 0963 8c3e
000000c0: 5c6c 0a3f 40db 5bbe 137d a33e 96b7 5f3f
000000d0: 8819 063f 7eac fdbd 09b9 cc3d dd4a 42be
000000e0: a65d 1abe 67ea 2d3d 30d0 28be 772f 893f
000000f0: 4a52 233d 7419 093f 54bf ab3e 21b7 f4bd
00000100: 7fe2 593c 2755 b5be 06aa 8e3f 333f b53e
00000110: 06bf e8be 08ab 303d 7b5d fe3e 76bc 17be
00000120: aa45 ba3e 46dd 3fbe 1d20 4d3d 7fb0 a93c
00000130: 7157 0ebd 769a f8bd 93b5 c03e a423 6c3e
00000140: 0b02 423f 00e3 103f a977 bf3e 37b0 ff3d

fc3.weight f4 [10, 84]
-0.4555753 0.08146971 0.14882293 -0.010616349 0.01930148 -0.30351985 -0.11932803 -0.3271429
-0.22210711 0.11602207 0.055449255 -0.05278312 -0.17753394 -0.09094153 0.1635848 0.007312805
-0.36336267 -0.24836046 -0.35879776 -0.002065449 0.1103054 -0.38204554 -0.5383574 0.12602137
0.106796734 0.19033685 -0.3555862 -0.06485233 -0.33897674 -0.0044896766 -0.15566385 -0.020223819
-0.20415841 -0.11428095 0.059407108 0.06820819 -0.20470731 -0.31537423 0.096673176 0.047608126
0.038897414 0.07640196 -0.14693205 -0.051040534 -0.1752479 -0.18729857 -0.10281066 -0.07779085
-0.030661518 -0.13247937 -0.2263814 -0.12384787 -0.16488965 -0.11115024 0.0931552 -0.11224447
0.004921972 -0.22800083 -0.12159933 -0.32950947 -0.23469535 -0.18354681 -0.21210012 -0.13543347
0.0843091 -0.056618534 -0.42778972 -0.073901825 0.09560721 -0.3033653 -0.31149188 0.10635368
0.048941184 -0.11318651 -0.092675254 -0.048180893 -0.24471508 0.14746933 -0.061949056 -0.24979544
-0.11023037 0.036484282 -0.023516322 -0.098818205 -0.26633102 0.022571437 -0.06551033 -0.44265315
0.04915665 -0.10288239 -0.26771054 0.028308507 -0.07857283 -0.119261384 0.14015804 -0.011834634
-0.07046206 -0.19711092 0.007959257 0.08621983 -0.024403777 -0.5784342 -0.4264897 0.13333622
-0.21433538 -0.42913666 -0.26273155 0.19094847 -0.0024569503 -0.26105124 0.11288243 -0.04153588
-0.5767708 -0.37345293 -0.095560096 -0.34371158 0.08585745 0.09119299 -0.225482 0.053057656
0.09116515 -0.28622067 -0.029233096 -0.010807084 -0.13112937 -0.10426824 0.025300922 0.10576606
0.03812633 -0.093363434 -0.1053677 -0.4141274 -0.25214356 -0.42633247 -0.06455394 -0.27199382
-0.041253865 0.08527402 -0.027249947 0.07841449 -0.10012652 0.11530337 -0.18983316 -0.682453
0.08896622 -0.36010587 -0.10728715 0.18672569 -0.16920236 0.06699721 -0.064583406 -0.16307823
0.040790413 -0.2221192 -0.45306483 -0.463494 -0.041720904 -0.14943446 0.11036608 0.019679418
-0.07329328 -0.077420235 -0.18079801 -0.44154868 0.07610877 -0.42055118 -0.065688156 0.08342761
-0.23106727 0.008092313 -0.16943106 -0.30219957 -0.0854724 -0.29213774 0.012885517 -0.02477706
0.12382677 0.114489235 -0.13829866 -0.13567236 -0.13079108 -0.076371334 -0.058488615 -0.34137693
-0.7846769 -0.5431395 -0.3530286 -0.07021791 0.12223259 -0.033969413 -0.22025101 -0.10002339
0.047567215 0.13466476 -0.044298925 -0.07524754 -0.24560411 0.11616849 -0.20504166 -0.49804237
0.04843453 0.12425513 -0.012474733 -0.051930286 -0.25454366 -0.37125307 -0.17567027 -0.12523201
0.056863014 0.15471552 0.007067822 -0.1894349 0.12479724 -0.06931338 -0.043131296 0.13778158
-0.3787325 -0.4421361 0.03127571 -0.034839742 -0.10598703 -0.10473628 0.051628344 -0.13991219
-0.084331505 -0.27497342 -0.18998553 0.092326045 0.098981425 -0.16797023 -0.19197825 -0.20577237
-0.016606443 0.09089359 -0.047017317 -0.22941062 -0.44144467 -0.34063977 0.107216954 -0.16030101
0.050174717 -0.1659895 -0.08416532 0.016143633 -0.34884366 0.11175516 -0.17198317 0.06142237
-0.024043508 -0.021842936 0.054578666 -0.050574422 -0.024757447 -0.01472454 -0.16841373 -0.0074752923
00000000: 2a41 e9be 97d9 a63d 0a65 183e 32f0 2dbc
00000010: 231e 9e3c f466 9bbe 4162 f4bd 467f a7be
00000020: 0c70 63be fb9c ed3d c21e 633d 1d33 58bd
00000030: 75cb 35be 8e3f babd c682 273e 41a0 ef3b
00000040: ac0a babe 3452 7ebe 57b4 b7be 7c5c 07bb
00000050: cce7 e13d 799b c3be cad1 09bf bf0b 013e
00000060: 3fb8 da3d aae7 423e 650f b6be 4cd1 84bd
00000070: 5c8e adbe 231e 93bb 5866 1fbe 6cac a5bc
00000080: e70e 51be 210c eabd de54 733d bcb0 8b3d
00000090: cb9e 51be bb78 a1be 96fc c53d bd00 433d
000000a0: e552 1f3d a178 9c3d 5b75 16be e10f 51bd
000000b0: 2f74 33be 32cb 3fbe 658e d2bd cf50 9fbd
000000c0: dd2d fbbc aca8 07be 87d0 67be f4a3 fdbd
000000d0: d5d8 28be bda2 e3bd 27c8 be3d 6ee0 e5bd
000000e0: 7e48 a13b 0d79 69be 1209 f9bd 77b5 a8be
000000f0: fa53 70be b2f3 3bbe c630 59be 12af 0abe
00000100: 40aa ac3d d6e8 67bd 4107 dbbe d759 97bd
00000110: b7cd c33d b252 9bbe dd7b 9fbe f5cf d93d
00000120: 8d76 483d 54ce e7bd 86cc bdbd 5459 45bd
00000130: 9796 7abe 3302 173e 4bbe 7dbd 60ca 7fbe
00000140: 76c0 e1bd 8b70 153d 4da5 c0bc 3361 cabd
00000150: 8a5c 88be bce7 b83c 482a 86bd 6fa3 e2be
00000160: 7c58 493d 01b4 d2bd 5b11 89be 3ee7 e73c
00000170: cbea a0bd 503f f4bd 9785 0f3e 0de6 41bc
00000180: 6a4e 90bd 72d7 49be 8b67 023c 0694 b03d
00000190: 6eea c7bc 4414 14bf dc5c dabe 4a89 083e
000001a0: bc7a 5bbe cdb7 dbbe c084 86be ff87 433e
000001b0: c904 21bb 82a8 85be e72e e73d 8721 2abd
000001c0: 40a7 13bf 3935 bfbe 03b5 c3bd f7fa afbe
000001d0: 08d6 af3d 64c3 ba3d c1e4 66be fc52 593d
000001e0: cbb4 ba3d 848b 92be 3f7a efbc 3210 31bc
000001f0: c746 06be 968a d5bd e143 cf3c e09b d83d
00000200: 5b2a 1c3d 5435 bfbd 05cb d7bd 8208 d4be
00000210: f618 81be 4048 dabe db34 84bd c642 8bbe
00000220: d0f9 28bd 25a4 ae3d 483b dfbc c797 a03d
00000230: 220f cdbd 2c24 ec3d a063 42be 3db5 2ebf
00000240: ec33 b63d cc5f b8be 5eb9 dbbd 0535 3f3e
00000250: 6243 2dbe d535 893d 4e44 84bd fbfd 26be
00000260: d913 273d 3773 63be 1df8 e7be 164f edbe
00000270: 8ae3 2abd 5905 19be 9d07 e23d bb36 a13c
00000280: ca1a 96bd 808e 9ebd 1d23 39be ab12 e2be
00000290: eade 9b3d 7c52 d7be 8387 86bd 18dc aa3d
000002a0: e69c 6cbe 9f95 043c 567f 2dbe e7b9 9abe
000002b0: 270c afbd 1493 95be c71d 533c 43f9 cabc
000002c0: e498 fd3d 5579 ea3d 2a9e 0dbe b2ed 0abe
000002d0: 19ee 05be 9368 9cbd c291 6fbd f5c8 aebe
000002e0: 96e0 48bf 310b 0bbf 2ac0 b4be 68ce 8fbd
000002f0: 1555 fa3d 8323 0bbd 7b89 61be 10d9 ccbd
00000300: d7d5 423d 8fe5 093e ca72 35bd 621b 9abd
00000310: a57f 7bbe bfe9 ed3d 71f6 51be 69ff febe
00000320: 4963 463d 7979 fe3d d362 4cbc dab4 54bd
00000330: 8c53 82be e214 bebe e8e2 33be d23c 00be
00000340: 31e9 683d bf6d 1e3e 3099 e73b 39fb 41be
00000350: b295 ff3d 2cf4 8dbd 71aa 30bd 9d16 0d3e
00000360: 3ae9 c1be aa5f e2be f51a 003d 1eb4 0ebd
00000370: ba0f d9bd fa7f d6bd 3e78 533d 2445 0fbe
00000380: ffb5 acbd 51c9 8cbe 918b 42be 7015 bd3d
00000390: c6b6 ca3d 6300 2cbe f295 44be feb5 52be
000003a0: 3c0a 88bc 6b26 ba3d 3b95 40bd 9eea 6abe
000003b0: 0905 e2be 5668 aebe 9094 db3d f325 24be
000003c0: 0184 4d3d 27f9 29be de5e acbd a73f 843c
000003d0: a39b b2be e4df e43d 5b1c 30be 0696 7b3d
000003e0: e4f6 c4bc f5ef b2bc e18d 5f3d 2027 4fbd
000003f0: 21d0 cabc 323f 71bc a674 2cbe 4cf3 f4bb

fc3.bias f4 [10]
-0.15849349 -0.8097787 -0.09014222 0.44718936 0.51542103 -0.20951468 -0.08067598 -0.1683542
0.21767235 -0.044801645
00000000: 1e4c 22be a84d 4fbf 7c9c b8bd 01f6 e43e
00000010: a2f2 033f 048b 56be 7339 a5bd 0b65 2cbe
00000020: 80e5 5e3e ee81 37bd
